…
and the training, validation, test loops (including Excel exports and plots) should run without any more shape-stacking or missing-mask errors.

You said:
C:\Users\qy44lyfe\.conda\envs\Swallowenv\python.exe "D:/qy44lyfe/LLM segmentation/github repo/LLM_based_Segmentation/run_to_run variability test/GPT o4 high-4/main.py"
Train: 799, Val: 100, Test: 100
Dataloaders -> Train: 100, Val: 13, Test: 13
===============================================================================================
Layer (type:depth-idx)                        Output Shape              Param #
===============================================================================================
UNet                                          [8, 1, 256, 256]          --
├─DoubleConv: 1-1                             [8, 64, 256, 256]         --
│    └─Sequential: 2-1                        [8, 64, 256, 256]         --
│    │    └─Conv2d: 3-1                       [8, 64, 256, 256]         576
│    │    └─BatchNorm2d: 3-2                  [8, 64, 256, 256]         128
│    │    └─ReLU: 3-3                         [8, 64, 256, 256]         --
│    │    └─Conv2d: 3-4                       [8, 64, 256, 256]         36,864
│    │    └─BatchNorm2d: 3-5                  [8, 64, 256, 256]         128
│    │    └─ReLU: 3-6                         [8, 64, 256, 256]         --
├─Down: 1-2                                   [8, 128, 128, 128]        --
│    └─Sequential: 2-2                        [8, 128, 128, 128]        --
│    │    └─MaxPool2d: 3-7                    [8, 64, 128, 128]         --
│    │    └─DoubleConv: 3-8                   [8, 128, 128, 128]        221,696
├─Down: 1-3                                   [8, 256, 64, 64]          --
│    └─Sequential: 2-3                        [8, 256, 64, 64]          --
│    │    └─MaxPool2d: 3-9                    [8, 128, 64, 64]          --
│    │    └─DoubleConv: 3-10                  [8, 256, 64, 64]          885,760
├─Down: 1-4                                   [8, 512, 32, 32]          --
│    └─Sequential: 2-4                        [8, 512, 32, 32]          --
│    │    └─MaxPool2d: 3-11                   [8, 256, 32, 32]          --
│    │    └─DoubleConv: 3-12                  [8, 512, 32, 32]          3,540,992
├─Down: 1-5                                   [8, 1024, 16, 16]         --
│    └─Sequential: 2-5                        [8, 1024, 16, 16]         --
│    │    └─MaxPool2d: 3-13                   [8, 512, 16, 16]          --
│    │    └─DoubleConv: 3-14                  [8, 1024, 16, 16]         14,159,872
├─DoubleConv: 1-6                             [8, 2048, 16, 16]         --
│    └─Sequential: 2-6                        [8, 2048, 16, 16]         --
│    │    └─Conv2d: 3-15                      [8, 2048, 16, 16]         18,874,368
│    │    └─BatchNorm2d: 3-16                 [8, 2048, 16, 16]         4,096
│    │    └─ReLU: 3-17                        [8, 2048, 16, 16]         --
│    │    └─Conv2d: 3-18                      [8, 2048, 16, 16]         37,748,736
│    │    └─BatchNorm2d: 3-19                 [8, 2048, 16, 16]         4,096
│    │    └─ReLU: 3-20                        [8, 2048, 16, 16]         --
├─Up: 1-7                                     [8, 1024, 16, 16]         --
│    └─Upsample: 2-7                          [8, 2048, 32, 32]         --
│    └─DoubleConv: 2-8                        [8, 1024, 16, 16]         --
│    │    └─Sequential: 3-21                  [8, 1024, 16, 16]         37,752,832
├─Up: 1-8                                     [8, 512, 32, 32]          --
│    └─Upsample: 2-9                          [8, 1024, 32, 32]         --
│    └─DoubleConv: 2-10                       [8, 512, 32, 32]          --
│    │    └─Sequential: 3-22                  [8, 512, 32, 32]          9,439,232
├─Up: 1-9                                     [8, 256, 64, 64]          --
│    └─Upsample: 2-11                         [8, 512, 64, 64]          --
│    └─DoubleConv: 2-12                       [8, 256, 64, 64]          --
│    │    └─Sequential: 3-23                  [8, 256, 64, 64]          2,360,320
├─Up: 1-10                                    [8, 128, 128, 128]        --
│    └─Upsample: 2-13                         [8, 256, 128, 128]        --
│    └─DoubleConv: 2-14                       [8, 128, 128, 128]        --
│    │    └─Sequential: 3-24                  [8, 128, 128, 128]        590,336
├─Up: 1-11                                    [8, 64, 256, 256]         --
│    └─Upsample: 2-15                         [8, 128, 256, 256]        --
│    └─DoubleConv: 2-16                       [8, 64, 256, 256]         --
│    │    └─Sequential: 3-25                  [8, 64, 256, 256]         147,712
├─Conv2d: 1-12                                [8, 1, 256, 256]          65
===============================================================================================
Total params: 125,767,809
Trainable params: 125,767,809
Non-trainable params: 0
Total mult-adds (G): 638.14
===============================================================================================
Input size (MB): 2.10
Forward/backward pass size (MB): 4299.16
Params size (MB): 503.07
Estimated Total Size (MB): 4804.33
…
