…
5//GPT o4-mini-high//out of the box//BAGLS output" --image_size 256 --batch_size 8 --lr 1e-4 --num_epochs 50 --num_workers 4
Total samples: 5002
Training samples: 4001
Validation samples: 500
Testing samples: 501
Train loader batches: 501
Val loader batches: 63
Test loader batches: 63

Model Summary:
==========================================================================================
Layer (type:depth-idx)                   Output Shape              Param #
==========================================================================================
UNet                                     [8, 1, 256, 256]          --
├─ModuleList: 1-7                        --                        (recursive)
│    └─DoubleConv: 2-1                   [8, 64, 256, 256]         --
│    │    └─Sequential: 3-1              [8, 64, 256, 256]         37,696
├─MaxPool2d: 1-2                         [8, 64, 128, 128]         --
├─ModuleList: 1-7                        --                        (recursive)
│    └─DoubleConv: 2-2                   [8, 128, 128, 128]        --
│    │    └─Sequential: 3-2              [8, 128, 128, 128]        221,696
├─MaxPool2d: 1-4                         [8, 128, 64, 64]          --
├─ModuleList: 1-7                        --                        (recursive)
│    └─DoubleConv: 2-3                   [8, 256, 64, 64]          --
│    │    └─Sequential: 3-3              [8, 256, 64, 64]          885,760
├─MaxPool2d: 1-6                         [8, 256, 32, 32]          --
├─ModuleList: 1-7                        --                        (recursive)
│    └─DoubleConv: 2-4                   [8, 512, 32, 32]          --
│    │    └─Sequential: 3-4              [8, 512, 32, 32]          3,540,992
├─MaxPool2d: 1-8                         [8, 512, 16, 16]          --
├─DoubleConv: 1-9                        [8, 1024, 16, 16]         --
│    └─Sequential: 2-5                   [8, 1024, 16, 16]         --
│    │    └─Conv2d: 3-5                  [8, 1024, 16, 16]         4,718,592
│    │    └─BatchNorm2d: 3-6             [8, 1024, 16, 16]         2,048
│    │    └─ReLU: 3-7                    [8, 1024, 16, 16]         --
│    │    └─Conv2d: 3-8                  [8, 1024, 16, 16]         9,437,184
│    │    └─BatchNorm2d: 3-9             [8, 1024, 16, 16]         2,048
│    │    └─ReLU: 3-10                   [8, 1024, 16, 16]         --
├─ModuleList: 1-16                       --                        (recursive)
│    └─ConvTranspose2d: 2-6              [8, 512, 32, 32]          2,097,664
├─ModuleList: 1-17                       --                        (recursive)
│    └─DoubleConv: 2-7                   [8, 512, 32, 32]          --
│    │    └─Sequential: 3-11             [8, 512, 32, 32]          7,079,936
├─ModuleList: 1-16                       --                        (recursive)
│    └─ConvTranspose2d: 2-8              [8, 256, 64, 64]          524,544
├─ModuleList: 1-17                       --                        (recursive)
│    └─DoubleConv: 2-9                   [8, 256, 64, 64]          --
│    │    └─Sequential: 3-12             [8, 256, 64, 64]          1,770,496
├─ModuleList: 1-16                       --                        (recursive)
│    └─ConvTranspose2d: 2-10             [8, 128, 128, 128]        131,200
├─ModuleList: 1-17                       --                        (recursive)
│    └─DoubleConv: 2-11                  [8, 128, 128, 128]        --
│    │    └─Sequential: 3-13             [8, 128, 128, 128]        442,880
├─ModuleList: 1-16                       --                        (recursive)
│    └─ConvTranspose2d: 2-12             [8, 64, 256, 256]         32,832
├─ModuleList: 1-17                       --                        (recursive)
│    └─DoubleConv: 2-13                  [8, 64, 256, 256]         --
│    │    └─Sequential: 3-14             [8, 64, 256, 256]         110,848
├─Conv2d: 1-18                           [8, 1, 256, 256]          65
==========================================================================================
Total params: 31,036,481
Trainable params: 31,036,481
Non-trainable params: 0
Total mult-adds (G): 436.34
==========================================================================================
Input size (MB): 2.10
Forward/backward pass size (MB): 4601.15
Params size (MB): 124.15
Estimated Total Size (MB): 4727.39
…
