…
All Excel files (.xlsx) and plots (.png) will be written under your save_path.

You said:
C:\Users\qy44lyfe\.conda\envs\Swallowenv\python.exe "D:/qy44lyfe/LLM segmentation/github repo/LLM_based_Segmentation/run_to_run variability test/GPT o4 high-5/main.py"
Train: 799, Val: 100, Test: 100
Dataloaders: 100 13 13
===============================================================================================
Layer (type:depth-idx)                        Output Shape              Param #
===============================================================================================
UNet                                          [8, 1, 256, 256]          --
├─DoubleConv: 1-1                             [8, 64, 256, 256]         --
│    └─Sequential: 2-1                        [8, 64, 256, 256]         --
│    │    └─Conv2d: 3-1                       [8, 64, 256, 256]         576
│    │    └─BatchNorm2d: 3-2                  [8, 64, 256, 256]         128
│    │    └─ReLU: 3-3                         [8, 64, 256, 256]         --
│    │    └─Conv2d: 3-4                       [8, 64, 256, 256]         36,864
│    │    └─BatchNorm2d: 3-5                  [8, 64, 256, 256]         128
│    │    └─ReLU: 3-6                         [8, 64, 256, 256]         --
├─Down: 1-2                                   [8, 128, 128, 128]        --
│    └─Sequential: 2-2                        [8, 128, 128, 128]        --
│    │    └─MaxPool2d: 3-7                    [8, 64, 128, 128]         --
│    │    └─DoubleConv: 3-8                   [8, 128, 128, 128]        221,696
├─Down: 1-3                                   [8, 256, 64, 64]          --
│    └─Sequential: 2-3                        [8, 256, 64, 64]          --
│    │    └─MaxPool2d: 3-9                    [8, 128, 64, 64]          --
│    │    └─DoubleConv: 3-10                  [8, 256, 64, 64]          885,760
├─Down: 1-4                                   [8, 512, 32, 32]          --
│    └─Sequential: 2-4                        [8, 512, 32, 32]          --
│    │    └─MaxPool2d: 3-11                   [8, 256, 32, 32]          --
│    │    └─DoubleConv: 3-12                  [8, 512, 32, 32]          3,540,992
├─Down: 1-5                                   [8, 512, 16, 16]          --
│    └─Sequential: 2-5                        [8, 512, 16, 16]          --
│    │    └─MaxPool2d: 3-13                   [8, 512, 16, 16]          --
│    │    └─DoubleConv: 3-14                  [8, 512, 16, 16]          4,720,640
├─Up: 1-6                                     [8, 256, 32, 32]          --
│    └─Upsample: 2-6                          [8, 512, 32, 32]          --
│    └─DoubleConv: 2-7                        [8, 256, 32, 32]          --
│    │    └─Sequential: 3-15                  [8, 256, 32, 32]          2,950,144
├─Up: 1-7                                     [8, 128, 64, 64]          --
│    └─Upsample: 2-8                          [8, 256, 64, 64]          --
│    └─DoubleConv: 2-9                        [8, 128, 64, 64]          --
│    │    └─Sequential: 3-16                  [8, 128, 64, 64]          737,792
├─Up: 1-8                                     [8, 64, 128, 128]         --
│    └─Upsample: 2-10                         [8, 128, 128, 128]        --
│    └─DoubleConv: 2-11                       [8, 64, 128, 128]         --
│    │    └─Sequential: 3-17                  [8, 64, 128, 128]         184,576
├─Up: 1-9                                     [8, 64, 256, 256]         --
│    └─Upsample: 2-12                         [8, 64, 256, 256]         --
│    └─DoubleConv: 2-13                       [8, 64, 256, 256]         --
│    │    └─Sequential: 3-18                  [8, 64, 256, 256]         110,848
├─Conv2d: 1-10                                [8, 1, 256, 256]          65
===============================================================================================
Total params: 13,390,209
Trainable params: 13,390,209
Non-trainable params: 0
Total mult-adds (G): 246.76
===============================================================================================
Input size (MB): 2.10
Forward/backward pass size (MB): 3594.52
Params size (MB): 53.56
Estimated Total Size (MB): 3650.18
===============================================================================================
===============================================================================================
Layer (type:depth-idx)                        Output Shape              Param #
===============================================================================================
UNet                                          [8, 1, 256, 256]          --
├─DoubleConv: 1-1                             [8, 64, 256, 256]         --
│    └─Sequential: 2-1                        [8, 64, 256, 256]         --
│    │    └─Conv2d: 3-1                       [8, 64, 256, 256]         576
│    │    └─BatchNorm2d: 3-2                  [8, 64, 256, 256]         128
│    │    └─ReLU: 3-3                         [8, 64, 256, 256]         --
│    │    └─Conv2d: 3-4                       [8, 64, 256, 256]         36,864
│    │    └─BatchNorm2d: 3-5                  [8, 64, 256, 256]         128
│    │    └─ReLU: 3-6                         [8, 64, 256, 256]         --
├─Down: 1-2                                   [8, 128, 128, 128]        --
│    └─Sequential: 2-2                        [8, 128, 128, 128]        --
│    │    └─MaxPool2d: 3-7                    [8, 64, 128, 128]         --
│    │    └─DoubleConv: 3-8                   [8, 128, 128, 128]        221,696
├─Down: 1-3                                   [8, 256, 64, 64]          --
│    └─Sequential: 2-3                        [8, 256, 64, 64]          --
│    │    └─MaxPool2d: 3-9                    [8, 128, 64, 64]          --
│    │    └─DoubleConv: 3-10                  [8, 256, 64, 64]          885,760
├─Down: 1-4                                   [8, 512, 32, 32]          --
│    └─Sequential: 2-4                        [8, 512, 32, 32]          --
│    │    └─MaxPool2d: 3-11                   [8, 256, 32, 32]          --
│    │    └─DoubleConv: 3-12                  [8, 512, 32, 32]          3,540,992
├─Down: 1-5                                   [8, 512, 16, 16]          --
│    └─Sequential: 2-5                        [8, 512, 16, 16]          --
│    │    └─MaxPool2d: 3-13                   [8, 512, 16, 16]          --
│    │    └─DoubleConv: 3-14                  [8, 512, 16, 16]          4,720,640
├─Up: 1-6                                     [8, 256, 32, 32]          --
│    └─Upsample: 2-6                          [8, 512, 32, 32]          --
│    └─DoubleConv: 2-7                        [8, 256, 32, 32]          --
│    │    └─Sequential: 3-15                  [8, 256, 32, 32]          2,950,144
├─Up: 1-7                                     [8, 128, 64, 64]          --
│    └─Upsample: 2-8                          [8, 256, 64, 64]          --
│    └─DoubleConv: 2-9                        [8, 128, 64, 64]          --
│    │    └─Sequential: 3-16                  [8, 128, 64, 64]          737,792
├─Up: 1-8                                     [8, 64, 128, 128]         --
│    └─Upsample: 2-10                         [8, 128, 128, 128]        --
│    └─DoubleConv: 2-11                       [8, 64, 128, 128]         --
│    │    └─Sequential: 3-17                  [8, 64, 128, 128]         184,576
├─Up: 1-9                                     [8, 64, 256, 256]         --
│    └─Upsample: 2-12                         [8, 64, 256, 256]         --
│    └─DoubleConv: 2-13                       [8, 64, 256, 256]         --
│    │    └─Sequential: 3-18                  [8, 64, 256, 256]         110,848
├─Conv2d: 1-10                                [8, 1, 256, 256]          65
===============================================================================================
Total params: 13,390,209
Trainable params: 13,390,209
Non-trainable params: 0
Total mult-adds (G): 246.76
===============================================================================================
Input size (MB): 2.10
Forward/backward pass size (MB): 3594.52
Params size (MB): 53.56
Estimated Total Size (MB): 3650.18
…
